Model Summary:- 


__________________________________________________________________________________________________
Layer (type)                    Output Shape         Param #     Connected to                     
==================================================================================================
input_1 (InputLayer)            (None, 300)          0                                            
__________________________________________________________________________________________________
embedding_1 (Embedding)         (None, 300, 100)     688000      input_1[0][0]                    
__________________________________________________________________________________________________
bidirectional_1 (Bidirectional) (None, 300, 200)     160800      embedding_1[0][0]                
__________________________________________________________________________________________________
time_distributed_1 (TimeDistrib (None, 300, 100)     20100       bidirectional_1[0][0]            
__________________________________________________________________________________________________
max_pooling1d_1 (MaxPooling1D)  (None, 100, 100)     0           time_distributed_1[0][0]         
__________________________________________________________________________________________________
flatten_1 (Flatten)             (None, 10000)        0           max_pooling1d_1[0][0]            
__________________________________________________________________________________________________
input_2 (InputLayer)            (None, 3)            0                                            
__________________________________________________________________________________________________
dense_2 (Dense)                 (None, 100)          1000100     flatten_1[0][0]                  
__________________________________________________________________________________________________
concatenate_1 (Concatenate)     (None, 103)          0           input_2[0][0]                    
                                                                 dense_2[0][0]                    
__________________________________________________________________________________________________
dense_3 (Dense)                 (None, 12)           1248        concatenate_1[0][0]              
__________________________________________________________________________________________________
dropout_1 (Dropout)             (None, 12)           0           dense_3[0][0]                    
__________________________________________________________________________________________________
dense_4 (Dense)                 (None, 8)            104         dropout_1[0][0]                  
__________________________________________________________________________________________________
dense_5 (Dense)                 (None, 1)            9           dense_4[0][0]                    
==================================================================================================
Total params: 1,870,361
Trainable params: 1,870,361
Non-trainable params: 0
__________________________________________________________________________________________________
Train on 1278 samples, validate on 143 samples
Epoch 1/50

  32/1278 [..............................] - ETA: 2:10 - loss: 5.5579 - acc: 0.6562
…
